…
[2022-06-15 13:32:08,530: INFO: 01_base_model_creation]: 
********************
[2022-06-15 13:32:08,530: INFO: 01_base_model_creation]: >>>>> stage creating base model started <<<<<
[2022-06-15 13:32:08,531: INFO: common]: yaml file: configs/config.yaml loaded successfully
[2022-06-15 13:32:11,602: INFO: 01_base_model_creation]: creating base model: 
Model: "sequential"
_________________________________________________________________
 Layer (type)                Output Shape              Param #   
=================================================================
 inputLayer (Flatten)        (None, 784)               0         
                                                                 
 hiddenLayer1 (Dense)        (None, 300)               235500    
                                                                 
 leaky_re_lu (LeakyReLU)     (None, 300)               0         
                                                                 
 hiddenLayer2 (Dense)        (None, 100)               30100     
                                                                 
 leaky_re_lu_1 (LeakyReLU)   (None, 100)               0         
                                                                 
 outputLayer (Dense)         (None, 10)                1010      
                                                                 
=================================================================
Total params: 266,610
Trainable params: 266,610
Non-trainable params: 0
_________________________________________________________________

[2022-06-15 13:32:52,391: INFO: common]: created directory at: artifacts\models
[2022-06-15 13:32:52,408: INFO: 01_base_model_creation]: base model is saved to artifacts\models\base_model.h5
…
[2022-06-15 13:33:07,642: INFO: 01.01_base_model_creation_bin]: 
********************
[2022-06-15 13:33:07,642: INFO: 01.01_base_model_creation_bin]: >>>>> stage creating binary base model started <<<<<
[2022-06-15 13:33:07,642: INFO: common]: yaml file: configs/config.yaml loaded successfully
[2022-06-15 13:33:10,803: INFO: 01.01_base_model_creation_bin]: creating binary base model: 
Model: "sequential"
_________________________________________________________________
 Layer (type)                Output Shape              Param #   
=================================================================
 inputLayer (Flatten)        (None, 784)               0         
                                                                 
 hiddenLayer1 (Dense)        (None, 300)               235500    
                                                                 
 leaky_re_lu (LeakyReLU)     (None, 300)               0         
                                                                 
 hiddenLayer2 (Dense)        (None, 100)               30100     
                                                                 
 leaky_re_lu_1 (LeakyReLU)   (None, 100)               0         
                                                                 
 outputLayer (Dense)         (None, 2)                 202       
                                                                 
=================================================================
Total params: 265,802
Trainable params: 265,802
Non-trainable params: 0
_________________________________________________________________

[2022-06-15 13:33:57,397: INFO: common]: created directory at: artifacts\models
[2022-06-15 13:33:57,410: INFO: 01.01_base_model_creation_bin]: bin_base model is saved to artifacts\models\bin_base_model.h5
…
[2022-06-15 13:34:16,555: INFO: 02_transfer_learning_even_odd]: 
********************
[2022-06-15 13:34:16,555: INFO: 02_transfer_learning_even_odd]: >>>>> stage transfer learning started <<<<<
[2022-06-15 13:34:16,555: INFO: common]: yaml file: configs/config.yaml loaded successfully
[2022-06-15 13:34:19,632: INFO: 02_transfer_learning_even_odd]: loaded base model summary: 
Model: "sequential"
_________________________________________________________________
 Layer (type)                Output Shape              Param #   
=================================================================
 inputLayer (Flatten)        (None, 784)               0         
                                                                 
 hiddenLayer1 (Dense)        (None, 300)               235500    
                                                                 
 leaky_re_lu (LeakyReLU)     (None, 300)               0         
                                                                 
 hiddenLayer2 (Dense)        (None, 100)               30100     
                                                                 
 leaky_re_lu_1 (LeakyReLU)   (None, 100)               0         
                                                                 
 outputLayer (Dense)         (None, 10)                1010      
                                                                 
=================================================================
Total params: 266,610
Trainable params: 266,610
Non-trainable params: 0
_________________________________________________________________

[2022-06-15 13:34:19,675: INFO: 02_transfer_learning_even_odd]: transfer learning model summary: 
Model: "sequential"
_________________________________________________________________
 Layer (type)                Output Shape              Param #   
=================================================================
 inputLayer (Flatten)        (None, 784)               0         
                                                                 
 hiddenLayer1 (Dense)        (None, 300)               235500    
                                                                 
 leaky_re_lu (LeakyReLU)     (None, 300)               0         
                                                                 
 hiddenLayer2 (Dense)        (None, 100)               30100     
                                                                 
 leaky_re_lu_1 (LeakyReLU)   (None, 100)               0         
                                                                 
 output_layer (Dense)        (None, 2)                 202       
                                                                 
=================================================================
Total params: 265,802
Trainable params: 202
Non-trainable params: 265,600
_________________________________________________________________

[2022-06-15 13:35:01,806: INFO: 02_transfer_learning_even_odd]: base model is saved to artifacts\models\even_odd_model.h5
…
